…
  (weight): ParametrizationList(
    (0): _WeightNorm()
  )
)
2025-12-12 11:23:05 - TTS.vocoder.models.univnet_generator - INFO - Weight norm is removed from ParametrizedConv1d(
  64, 64, kernel_size=(3,), stride=(1,), padding=(1,)
  (parametrizations): ModuleDict(
    (weight): ParametrizationList(
      (0): _WeightNorm()
    )
  )
)
2025-12-12 11:23:05 - TTS.vocoder.models.univnet_generator - INFO - Weight norm is removed from LeakyReLU(negative_slope=0.1)
2025-12-12 11:23:05 - TTS.vocoder.models.univnet_generator - INFO - Weight norm is removed from Sequential(
  (0): Dropout(p=0.0, inplace=False)
  (1): Conv1d(64, 64, kernel_size=(3,), stride=(1,), padding=(1,))
  (2): LeakyReLU(negative_slope=0.1)
  (3): Conv1d(64, 64, kernel_size=(3,), stride=(1,), padding=(1,))
  (4): LeakyReLU(negative_slope=0.1)
  (5): Dropout(p=0.0, inplace=False)
  (6): Conv1d(64, 64, kernel_size=(3,), stride=(1,), padding=(1,))
  (7): LeakyReLU(negative_slope=0.1)
  (8): Conv1d(64, 64, kernel_size=(3,), stride=(1,), padding=(1,))
  (9): LeakyReLU(negative_slope=0.1)
  (10): Dropout(p=0.0, inplace=False)
  (11): Conv1d(64, 64, kernel_size=(3,), stride=(1,), padding=(1,))
  (12): LeakyReLU(negative_slope=0.1)
  (13): Conv1d(64, 64, kernel_size=(3,), stride=(1,), padding=(1,))
  (14): LeakyReLU(negative_slope=0.1)
)
2025-12-12 11:23:05 - TTS.vocoder.models.univnet_generator - INFO - Weight norm is removed from _WeightNorm()
2025-12-12 11:23:05 - TTS.vocoder.models.univnet_generator - INFO - Weight norm is removed from ParametrizationList(
  (0): _WeightNorm()
)
2025-12-12 11:23:05 - TTS.vocoder.models.univnet_generator - INFO - Weight norm is removed from ModuleDict(
…
  (0): _WeightNorm()
)
2025-12-12 11:23:05 - TTS.vocoder.models.univnet_generator - INFO - Weight norm is removed from ModuleDict(
  (weight): ParametrizationList(
    (0): _WeightNorm()
  )
)
2025-12-12 11:23:05 - TTS.vocoder.models.univnet_generator - INFO - Weight norm is removed from ParametrizedConv1d(
  64, 256, kernel_size=(3,), stride=(1,), padding=(1,)
  (parametrizations): ModuleDict(
    (weight): ParametrizationList(
      (0): _WeightNorm()
    )
  )
)
2025-12-12 11:23:05 - TTS.vocoder.models.univnet_generator - INFO - Weight norm is removed from KernelPredictor(
  (input_conv): Sequential(
    (0): Conv1d(80, 64, kernel_size=(5,), stride=(1,), padding=(2,))
    (1): LeakyReLU(negative_slope=0.1)
  )
  (residual_conv): Sequential(
    (0): Dropout(p=0.0, inplace=False)
    (1): Conv1d(64, 64, kernel_size=(3,), stride=(1,), padding=(1,))
    (2): LeakyReLU(negative_slope=0.1)
    (3): Conv1d(64, 64, kernel_size=(3,), stride=(1,), padding=(1,))
    (4): LeakyReLU(negative_slope=0.1)
    (5): Dropout(p=0.0, inplace=False)
    (6): Conv1d(64, 64, kernel_size=(3,), stride=(1,), padding=(1,))
    (7): LeakyReLU(negative_slope=0.1)
    (8): Conv1d(64, 64, kernel_size=(3,), stride=(1,), padding=(1,))
    (9): LeakyReLU(negative_slope=0.1)
    (10): Dropout(p=0.0, inplace=False)
    (11): Conv1d(64, 64, kernel_size=(3,), stride=(1,), padding=(1,))
    (12): LeakyReLU(negative_slope=0.1)
    (13): Conv1d(64, 64, kernel_size=(3,), stride=(1,), padding=(1,))
    (14): LeakyReLU(negative_slope=0.1)
  )
  (kernel_conv): Conv1d(64, 24576, kernel_size=(3,), stride=(1,), padding=(1,))
  (bias_conv): Conv1d(64, 256, kernel_size=(3,), stride=(1,), padding=(1,))
)
2025-12-12 11:23:05 - TTS.vocoder.models.univnet_generator - INFO - Weight norm is removed from LVCBlock(
  (convs): ModuleList(
    (0): Conv1d(32, 32, kernel_size=(3,), stride=(1,), padding=(1,))
    (1): Conv1d(32, 32, kernel_size=(3,), stride=(1,), padding=(3,), dilation=(3,))
    (2): Conv1d(32, 32, kernel_size=(3,), stride=(1,), padding=(9,), dilation=(9,))
    (3): Conv1d(32, 32, kernel_size=(3,), stride=(1,), padding=(27,), dilation=(27,))
  )
  (upsample): ConvTranspose1d(32, 32, kernel_size=(16,), stride=(8,), padding=(4,))
  (kernel_predictor): KernelPredictor(
    (input_conv): Sequential(
      (0): Conv1d(80, 64, kernel_size=(5,), stride=(1,), padding=(2,))
      (1): LeakyReLU(negative_slope=0.1)
    )
    (residual_conv): Sequential(
      (0): Dropout(p=0.0, inplace=False)
      (1): Conv1d(64, 64, kernel_size=(3,), stride=(1,), padding=(1,))
      (2): LeakyReLU(negative_slope=0.1)
      (3): Conv1d(64, 64, kernel_size=(3,), stride=(1,), padding=(1,))
      (4): LeakyReLU(negative_slope=0.1)
      (5): Dropout(p=0.0, inplace=False)
      (6): Conv1d(64, 64, kernel_size=(3,), stride=(1,), padding=(1,))
      (7): LeakyReLU(negative_slope=0.1)
      (8): Conv1d(64, 64, kernel_size=(3,), stride=(1,), padding=(1,))
      (9): LeakyReLU(negative_slope=0.1)
      (10): Dropout(p=0.0, inplace=False)
      (11): Conv1d(64, 64, kernel_size=(3,), stride=(1,), padding=(1,))
      (12): LeakyReLU(negative_slope=0.1)
      (13): Conv1d(64, 64, kernel_size=(3,), stride=(1,), padding=(1,))
      (14): LeakyReLU(negative_slope=0.1)
    )
    (kernel_conv): Conv1d(64, 24576, kernel_size=(3,), stride=(1,), padding=(1,))
    (bias_conv): Conv1d(64, 256, kernel_size=(3,), stride=(1,), padding=(1,))
  )
)
2025-12-12 11:23:05 - TTS.vocoder.models.univnet_generator - INFO - Weight norm is removed from _WeightNorm()
2025-12-12 11:23:05 - TTS.vocoder.models.univnet_generator - INFO - Weight norm is removed from ParametrizationList(
  (0): _WeightNorm()
)
2025-12-12 11:23:05 - TTS.vocoder.models.univnet_generator - INFO - Weight norm is removed from ModuleDict(
…
  (0): _WeightNorm()
)
2025-12-12 11:23:05 - TTS.vocoder.models.univnet_generator - INFO - Weight norm is removed from ModuleDict(
  (weight): ParametrizationList(
    (0): _WeightNorm()
  )
)
2025-12-12 11:23:05 - TTS.vocoder.models.univnet_generator - INFO - Weight norm is removed from ParametrizedConv1d(
  64, 256, kernel_size=(3,), stride=(1,), padding=(1,)
  (parametrizations): ModuleDict(
    (weight): ParametrizationList(
      (0): _WeightNorm()
    )
  )
)
2025-12-12 11:23:05 - TTS.vocoder.models.univnet_generator - INFO - Weight norm is removed from KernelPredictor(
  (input_conv): Sequential(
    (0): Conv1d(80, 64, kernel_size=(5,), stride=(1,), padding=(2,))
    (1): LeakyReLU(negative_slope=0.1)
  )
  (residual_conv): Sequential(
    (0): Dropout(p=0.0, inplace=False)
    (1): Conv1d(64, 64, kernel_size=(3,), stride=(1,), padding=(1,))
    (2): LeakyReLU(negative_slope=0.1)
    (3): Conv1d(64, 64, kernel_size=(3,), stride=(1,), padding=(1,))
    (4): LeakyReLU(negative_slope=0.1)
    (5): Dropout(p=0.0, inplace=False)
    (6): Conv1d(64, 64, kernel_size=(3,), stride=(1,), padding=(1,))
    (7): LeakyReLU(negative_slope=0.1)
    (8): Conv1d(64, 64, kernel_size=(3,), stride=(1,), padding=(1,))
    (9): LeakyReLU(negative_slope=0.1)
    (10): Dropout(p=0.0, inplace=False)
    (11): Conv1d(64, 64, kernel_size=(3,), stride=(1,), padding=(1,))
    (12): LeakyReLU(negative_slope=0.1)
    (13): Conv1d(64, 64, kernel_size=(3,), stride=(1,), padding=(1,))
    (14): LeakyReLU(negative_slope=0.1)
  )
  (kernel_conv): Conv1d(64, 24576, kernel_size=(3,), stride=(1,), padding=(1,))
  (bias_conv): Conv1d(64, 256, kernel_size=(3,), stride=(1,), padding=(1,))
)
2025-12-12 11:23:05 - TTS.vocoder.models.univnet_generator - INFO - Weight norm is removed from LVCBlock(
  (convs): ModuleList(
    (0): Conv1d(32, 32, kernel_size=(3,), stride=(1,), padding=(1,))
    (1): Conv1d(32, 32, kernel_size=(3,), stride=(1,), padding=(3,), dilation=(3,))
    (2): Conv1d(32, 32, kernel_size=(3,), stride=(1,), padding=(9,), dilation=(9,))
    (3): Conv1d(32, 32, kernel_size=(3,), stride=(1,), padding=(27,), dilation=(27,))
  )
  (upsample): ConvTranspose1d(32, 32, kernel_size=(8,), stride=(4,), padding=(2,))
  (kernel_predictor): KernelPredictor(
    (input_conv): Sequential(
      (0): Conv1d(80, 64, kernel_size=(5,), stride=(1,), padding=(2,))
      (1): LeakyReLU(negative_slope=0.1)
    )
    (residual_conv): Sequential(
      (0): Dropout(p=0.0, inplace=False)
      (1): Conv1d(64, 64, kernel_size=(3,), stride=(1,), padding=(1,))
      (2): LeakyReLU(negative_slope=0.1)
      (3): Conv1d(64, 64, kernel_size=(3,), stride=(1,), padding=(1,))
      (4): LeakyReLU(negative_slope=0.1)
      (5): Dropout(p=0.0, inplace=False)
      (6): Conv1d(64, 64, kernel_size=(3,), stride=(1,), padding=(1,))
      (7): LeakyReLU(negative_slope=0.1)
      (8): Conv1d(64, 64, kernel_size=(3,), stride=(1,), padding=(1,))
      (9): LeakyReLU(negative_slope=0.1)
      (10): Dropout(p=0.0, inplace=False)
      (11): Conv1d(64, 64, kernel_size=(3,), stride=(1,), padding=(1,))
      (12): LeakyReLU(negative_slope=0.1)
      (13): Conv1d(64, 64, kernel_size=(3,), stride=(1,), padding=(1,))
      (14): LeakyReLU(negative_slope=0.1)
    )
    (kernel_conv): Conv1d(64, 24576, kernel_size=(3,), stride=(1,), padding=(1,))
    (bias_conv): Conv1d(64, 256, kernel_size=(3,), stride=(1,), padding=(1,))
  )
)
2025-12-12 11:23:05 - TTS.vocoder.models.univnet_generator - INFO - Weight norm is removed from ModuleList(
  (0-1): 2 x LVCBlock(
    (convs): ModuleList(
      (0): Conv1d(32, 32, kernel_size=(3,), stride=(1,), padding=(1,))
      (1): Conv1d(32, 32, kernel_size=(3,), stride=(1,), padding=(3,), dilation=(3,))
      (2): Conv1d(32, 32, kernel_size=(3,), stride=(1,), padding=(9,), dilation=(9,))
      (3): Conv1d(32, 32, kernel_size=(3,), stride=(1,), padding=(27,), dilation=(27,))
    )
    (upsample): ConvTranspose1d(32, 32, kernel_size=(16,), stride=(8,), padding=(4,))
    (kernel_predictor): KernelPredictor(
      (input_conv): Sequential(
        (0): Conv1d(80, 64, kernel_size=(5,), stride=(1,), padding=(2,))
        (1): LeakyReLU(negative_slope=0.1)
      )
      (residual_conv): Sequential(
        (0): Dropout(p=0.0, inplace=False)
        (1): Conv1d(64, 64, kernel_size=(3,), stride=(1,), padding=(1,))
        (2): LeakyReLU(negative_slope=0.1)
        (3): Conv1d(64, 64, kernel_size=(3,), stride=(1,), padding=(1,))
        (4): LeakyReLU(negative_slope=0.1)
        (5): Dropout(p=0.0, inplace=False)
        (6): Conv1d(64, 64, kernel_size=(3,), stride=(1,), padding=(1,))
        (7): LeakyReLU(negative_slope=0.1)
        (8): Conv1d(64, 64, kernel_size=(3,), stride=(1,), padding=(1,))
        (9): LeakyReLU(negative_slope=0.1)
        (10): Dropout(p=0.0, inplace=False)
        (11): Conv1d(64, 64, kernel_size=(3,), stride=(1,), padding=(1,))
        (12): LeakyReLU(negative_slope=0.1)
        (13): Conv1d(64, 64, kernel_size=(3,), stride=(1,), padding=(1,))
        (14): LeakyReLU(negative_slope=0.1)
      )
      (kernel_conv): Conv1d(64, 24576, kernel_size=(3,), stride=(1,), padding=(1,))
      (bias_conv): Conv1d(64, 256, kernel_size=(3,), stride=(1,), padding=(1,))
    )
  )
  (2): LVCBlock(
    (convs): ModuleList(
      (0): Conv1d(32, 32, kernel_size=(3,), stride=(1,), padding=(1,))
      (1): Conv1d(32, 32, kernel_size=(3,), stride=(1,), padding=(3,), dilation=(3,))
      (2): Conv1d(32, 32, kernel_size=(3,), stride=(1,), padding=(9,), dilation=(9,))
      (3): Conv1d(32, 32, kernel_size=(3,), stride=(1,), padding=(27,), dilation=(27,))
    )
    (upsample): ConvTranspose1d(32, 32, kernel_size=(8,), stride=(4,), padding=(2,))
    (kernel_predictor): KernelPredictor(
      (input_conv): Sequential(
        (0): Conv1d(80, 64, kernel_size=(5,), stride=(1,), padding=(2,))
        (1): LeakyReLU(negative_slope=0.1)
      )
      (residual_conv): Sequential(
        (0): Dropout(p=0.0, inplace=False)
        (1): Conv1d(64, 64, kernel_size=(3,), stride=(1,), padding=(1,))
        (2): LeakyReLU(negative_slope=0.1)
        (3): Conv1d(64, 64, kernel_size=(3,), stride=(1,), padding=(1,))
        (4): LeakyReLU(negative_slope=0.1)
        (5): Dropout(p=0.0, inplace=False)
        (6): Conv1d(64, 64, kernel_size=(3,), stride=(1,), padding=(1,))
        (7): LeakyReLU(negative_slope=0.1)
        (8): Conv1d(64, 64, kernel_size=(3,), stride=(1,), padding=(1,))
        (9): LeakyReLU(negative_slope=0.1)
        (10): Dropout(p=0.0, inplace=False)
        (11): Conv1d(64, 64, kernel_size=(3,), stride=(1,), padding=(1,))
        (12): LeakyReLU(negative_slope=0.1)
        (13): Conv1d(64, 64, kernel_size=(3,), stride=(1,), padding=(1,))
        (14): LeakyReLU(negative_slope=0.1)
      )
      (kernel_conv): Conv1d(64, 24576, kernel_size=(3,), stride=(1,), padding=(1,))
      (bias_conv): Conv1d(64, 256, kernel_size=(3,), stride=(1,), padding=(1,))
    )
  )
)
2025-12-12 11:23:05 - TTS.vocoder.models.univnet_generator - INFO - Weight norm is removed from _WeightNorm()
2025-12-12 11:23:05 - TTS.vocoder.models.univnet_generator - INFO - Weight norm is removed from ParametrizationList(
  (0): _WeightNorm()
)
2025-12-12 11:23:05 - TTS.vocoder.models.univnet_generator - INFO - Weight norm is removed from ModuleDict(
  (weight): ParametrizationList(
    (0): _WeightNorm()
  )
)
2025-12-12 11:23:05 - TTS.vocoder.models.univnet_generator - INFO - Weight norm is removed from ParametrizedConv1d(
  32, 1, kernel_size=(7,), stride=(1,), padding=(3,)
  (parametrizations): ModuleDict(
    (weight): ParametrizationList(
      (0): _WeightNorm()
    )
  )
)
2025-12-12 11:23:05 - TTS.vocoder.models.univnet_generator - INFO - Weight norm is removed from ModuleList(
  (0): Conv1d(32, 1, kernel_size=(7,), stride=(1,), padding=(3,))
)
2025-12-12 11:23:05 - TTS.vocoder.models.univnet_generator - INFO - Weight norm is removed from UnivnetGenerator(
  (first_conv): Conv1d(64, 32, kernel_size=(7,), stride=(1,), padding=(3,))
  (lvc_blocks): ModuleList(
    (0-1): 2 x LVCBlock(
      (convs): ModuleList(
        (0): Conv1d(32, 32, kernel_size=(3,), stride=(1,), padding=(1,))
        (1): Conv1d(32, 32, kernel_size=(3,), stride=(1,), padding=(3,), dilation=(3,))
        (2): Conv1d(32, 32, kernel_size=(3,), stride=(1,), padding=(9,), dilation=(9,))
        (3): Conv1d(32, 32, kernel_size=(3,), stride=(1,), padding=(27,), dilation=(27,))
      )
      (upsample): ConvTranspose1d(32, 32, kernel_size=(16,), stride=(8,), padding=(4,))
      (kernel_predictor): KernelPredictor(
        (input_conv): Sequential(
          (0): Conv1d(80, 64, kernel_size=(5,), stride=(1,), padding=(2,))
          (1): LeakyReLU(negative_slope=0.1)
        )
        (residual_conv): Sequential(
          (0): Dropout(p=0.0, inplace=False)
          (1): Conv1d(64, 64, kernel_size=(3,), stride=(1,), padding=(1,))
          (2): LeakyReLU(negative_slope=0.1)
          (3): Conv1d(64, 64, kernel_size=(3,), stride=(1,), padding=(1,))
          (4): LeakyReLU(negative_slope=0.1)
          (5): Dropout(p=0.0, inplace=False)
          (6): Conv1d(64, 64, kernel_size=(3,), stride=(1,), padding=(1,))
          (7): LeakyReLU(negative_slope=0.1)
          (8): Conv1d(64, 64, kernel_size=(3,), stride=(1,), padding=(1,))
          (9): LeakyReLU(negative_slope=0.1)
          (10): Dropout(p=0.0, inplace=False)
          (11): Conv1d(64, 64, kernel_size=(3,), stride=(1,), padding=(1,))
          (12): LeakyReLU(negative_slope=0.1)
          (13): Conv1d(64, 64, kernel_size=(3,), stride=(1,), padding=(1,))
          (14): LeakyReLU(negative_slope=0.1)
        )
        (kernel_conv): Conv1d(64, 24576, kernel_size=(3,), stride=(1,), padding=(1,))
        (bias_conv): Conv1d(64, 256, kernel_size=(3,), stride=(1,), padding=(1,))
      )
    )
    (2): LVCBlock(
      (convs): ModuleList(
        (0): Conv1d(32, 32, kernel_size=(3,), stride=(1,), padding=(1,))
        (1): Conv1d(32, 32, kernel_size=(3,), stride=(1,), padding=(3,), dilation=(3,))
        (2): Conv1d(32, 32, kernel_size=(3,), stride=(1,), padding=(9,), dilation=(9,))
        (3): Conv1d(32, 32, kernel_size=(3,), stride=(1,), padding=(27,), dilation=(27,))
      )
      (upsample): ConvTranspose1d(32, 32, kernel_size=(8,), stride=(4,), padding=(2,))
      (kernel_predictor): KernelPredictor(
        (input_conv): Sequential(
          (0): Conv1d(80, 64, kernel_size=(5,), stride=(1,), padding=(2,))
          (1): LeakyReLU(negative_slope=0.1)
        )
        (residual_conv): Sequential(
          (0): Dropout(p=0.0, inplace=False)
          (1): Conv1d(64, 64, kernel_size=(3,), stride=(1,), padding=(1,))
          (2): LeakyReLU(negative_slope=0.1)
          (3): Conv1d(64, 64, kernel_size=(3,), stride=(1,), padding=(1,))
          (4): LeakyReLU(negative_slope=0.1)
          (5): Dropout(p=0.0, inplace=False)
          (6): Conv1d(64, 64, kernel_size=(3,), stride=(1,), padding=(1,))
          (7): LeakyReLU(negative_slope=0.1)
          (8): Conv1d(64, 64, kernel_size=(3,), stride=(1,), padding=(1,))
          (9): LeakyReLU(negative_slope=0.1)
          (10): Dropout(p=0.0, inplace=False)
          (11): Conv1d(64, 64, kernel_size=(3,), stride=(1,), padding=(1,))
          (12): LeakyReLU(negative_slope=0.1)
          (13): Conv1d(64, 64, kernel_size=(3,), stride=(1,), padding=(1,))
          (14): LeakyReLU(negative_slope=0.1)
        )
        (kernel_conv): Conv1d(64, 24576, kernel_size=(3,), stride=(1,), padding=(1,))
        (bias_conv): Conv1d(64, 256, kernel_size=(3,), stride=(1,), padding=(1,))
      )
    )
  )
  (last_conv_layers): ModuleList(
    (0): Conv1d(32, 1, kernel_size=(7,), stride=(1,), padding=(3,))
  )
)
2025-12-12 11:23:05 - TTS.utils.synthesizer - INFO - Text split into sentences.
2025-12-12 11:23:05 - TTS.utils.synthesizer - INFO - Input: ['Welcome to our unique four-hour course in fine-tuning a large language model, one of the most valuable skills you can learn .', 'Do you want to create a smart robot or develop innovative medical appli
…
